low_n_tutorial_files/TEM1_epoch1_weights/fully_connected_weights_0.npy (npy, 190128 bytes, 1 tensors)

array f4 [1900, 25]
00000000: 0a49 09bd 696f e83d 6ad3 46be 0955 bf3f
00000010: 742f 5abd 0c01 40be 00d1 6dbd 46ad 583d
00000020: ea41 7b3e f1ca 08be 6313 9fbd d381 02be
00000030: 05d2 92bc 20ab c33d 3070 44bd 20dd 9fbd
00000040: e0ac 04be 5a66 83bd e8f9 a4be ffd5 12bc
00000050: 88ac 6cbd a737 10be 0fb5 e0bd 2961 22be
00000060: 2938 fbbe 2a7a b73c 5a3d 913c 02c2 ffbb
00000070: ce9a 80ba fcf4 8eb9 a0b5 6a3c 1091 333c
00000080: 072a 773c 39ee bd3c 56f0 873b 0fba e53a
00000090: c9a4 203d e79c 61bb 09fd 863c 2504 953c
000000a0: 6fe9 ad3c b68c 273d 3739 ea3c b4ae 0d3d
000000b0: d594 bd3c ec34 da3c 09bf dc3c a195 4d3c
000000c0: b60a 0c3b 2c38 623d c622 9ebd 145a 0abe
000000d0: 187e 1ebe 6100 f23c 0453 783d 8e77 b33c
000000e0: 588c 973c 2e67 413e e3b7 4dbd a4ca f1bc
000000f0: e927 6b3d f59f a13d 095c da3c 2c01 75bd
00000100: 6a9a 0c3e 2195 2f3c bd8b b63c a195 cabd
00000110: a5cf 0cbe ebd5 3b3d 692c 79bc c962 ca3d
00000120: f9a8 ab3c 4e9d af3d e27e 1b3d 3806 ed3c
00000130: 2091 323c c16f 303d ae2c 783d 436e 3b3d
00000140: a11f 033d 61f9 5b3d c1cf 663d ee7c 1b3c
00000150: d224 ed3c b20c 79bd f95e 253e 472b 95bb
00000160: ada7 9c3d dcb3 d43c 2835 63bc 0bb8 46bc
00000170: ea0c 8e3c c975 323d 07ea cfbc 6014 05bd
00000180: 4fb0 fe3d 2039 673d ca1a ee3d 4138 bf3c
00000190: 4673 423c acc4 73bb 4949 a8bb 1e13 10bc
000001a0: 55bd c4bb 2cc7 6c3b 9365 f7bb 7535 bbba
000001b0: 76e7 873c 6578 a9bb 6c97 dfbc c870 febd
000001c0: 63ba 4dbc f202 cbbc 30f6 7d3b 570d 3abc
000001d0: f6d0 cfbb 0cbb 183c b07e c83b 6721 b23a
000001e0: 9418 eaba 8c77 36be 24e7 17be 2808 39be
000001f0: 16f6 eebc 467b 90bc b03c 9bbe 4f6e b3bd
00000200: c7a4 78be 50a9 ad3d d2b8 95bc 69de d9bd
00000210: d0b3 4ebd 3ba8 8b3b 30a4 67be bd86 e0bd
00000220: ba86 3f3b 5544 26bc d9a6 213e ceec 8abc
00000230: 0f79 023d 1c48 a73d 61da dd3d 7bc6 063d
00000240: c3ba 813d 7002 013e 8ad7 8f3d 696c 153d
00000250: dc90 283d 7e27 073d b9c4 323d e669 45bd
00000260: 63ed 32bc c6ba 67bd 3a23 7ebd a54e f1bc
00000270: d23d 95bd 572b 28bd 7e5b 83bd f8e1 20bd
00000280: c590 b5bc 3b9e 98be cb54 7ebd d0e2 70bd
00000290: d442 edbb dd45 96b9 a95b 183d 5317 2d3d
000002a0: bf1a b53c 021e 193d c075 483d 39c3 93be
000002b0: 9acf 86be f4dd a2be aa8d 6dbd ef10 e4bd
000002c0: 606e 4c3e 35f9 133e a1f3 063e 2e5a a43d
000002d0: 554a db3c 8895 6e3d 952d 0dbe c99d 1e3e
000002e0: acc7 2c3e e9f4 51be 15a9 ecbc 1b56 94bc
000002f0: ee04 e33d 6651 f6bd 3477 8abe b020 f4bd
00000300: c10b 87bb 0db9 053e 3e3a 0a3d b1e6 febd
00000310: 8d2e 81bd 44d5 71bc 6175 6ebc 181e 203e
00000320: 2ff1 0e3d d971 56be 1409 5bbd b7e5 40bd
00000330: c668 7338 72c8 8e3d 5c77 773c b0ce f93b
00000340: 8da9 a93d 0e8b 163e 48cd 22bc 6b50 0b3f
00000350: 9ca7 053e a9a7 edbd f2e5 353e bf55 0e3d
00000360: 767c e9bc 496f 273d 84ff afbc 2dad ddbc
00000370: ee4b 0a3e e952 f63e 3144 073f 2a55 fb3e
00000380: 26dc 103d 2641 1bbd c888 08bd ec43 dbbc
00000390: e6f0 b0bc dfc9 c8bc 7bad 0bbd 679e bdbc
000003a0: de7b b9bc 579f 8ebc 330e 3bbd c23d 41bd
000003b0: 4e64 e4bd 5ce9 e4bc 4bdf c6bc 79b9 dbbc
000003c0: b12e 28bd 711b f3bc b780 f0bc 88c8 f0bc
000003d0: e6a7 18bd e780 4cbd da49 ecbd 22ea b5bd
000003e0: 5b6f f1bd 5407 88bd 506a dd3c 0d5a 21bc
000003f0: 1a8b 0dbc 8b51 b83b 61ba 593c bee2 b83c
-0.03351692 0.11349375 -0.19416586 1.4947826 -0.05326791 -0.187504 -0.058060646 0.05289962
0.24536863 -0.13358666 -0.077673696 -0.12744837 -0.01792241 0.09554124 -0.047958553 -0.07805848
-0.12956572 -0.064160064 -0.32221913 -0.008962153 -0.057781726 -0.1408373 -0.10972034 -0.15857376
-0.49066284 0.02239712 0.01772945 -0.00780511 -0.000981176 -0.00027266878 0.014325529 0.010959879
0.015085704 0.023184882 0.0041485233 0.0017526763 0.03921965 -0.0034425796 0.016478078 0.018190453
0.021229474 0.040905677 0.028591735 0.034590438 0.023142258 0.026636563 0.026946561 0.012547881
0.002136869 0.05522935 -0.07721476 -0.13510925 -0.15477788 0.029541196 0.060626045 0.021907594
0.018499538 0.18887016 -0.050224196 -0.029515572 0.05741111 0.078918375 0.026655214 -0.05981557
0.1373078 0.010716707 0.02228343 -0.09891821 -0.13751085 0.045858305 -0.015208342 0.09882123
0.020954596 0.08574925 0.0379628 0.02893363 0.010898858 0.043075327 0.060589485 0.04575945
0.032012586 0.053704623 0.056350473 0.009490235 0.028948221 -0.060803123 0.1614951 -0.004552278
0.07649169 0.02596467 -0.013867654 -0.01212884 0.017340142 0.04356936 -0.025380148 -0.032490134
0.12435972 0.056450963 0.11626203 0.023342254 0.011868304 -0.0037196083 -0.0051356894 -0.00879362
-0.0060040154 0.0036129458 -0.0075499504 -0.0014282899 0.016589861 -0.005171823 -0.027293883 -0.12423855
-0.012556645 -0.024781678 0.0038751476 -0.0113557195 -0.0063420488 0.009321939 0.006118618 0.0013590277
-0.0017860108 -0.17819041 -0.14834267 -0.18069518 -0.029170077 -0.017636906 -0.30319738 -0.08761274
-0.24281608 0.084795594 -0.018276606 -0.106381245 -0.05046445 0.004261998 -0.22621226 -0.10963199
0.002922459 -0.010148128 0.15786304 -0.01695862 0.03185373 0.08168051 0.10832668 0.03290413
0.0633445 0.12598586 0.07023533 0.03648034 0.041153774 0.032996647 0.04364464 -0.048196696
-0.010920855 -0.056574605 -0.062045313 -0.029456446 -0.07287182 -0.041056957 -0.06413935 -0.039278
-0.022163758 -0.2980822 -0.062092584 -0.058810055 -0.0072406325 -0.00028662282 0.03719679 0.04225857
0.02210748 0.037382133 0.04894042 -0.2885988 -0.26330262 -0.31809962 -0.05799643 -0.11136042
0.1996398 0.14450534 0.13178875 0.08025013 0.026768843 0.058248073 -0.1378692 0.15489878
0.16873044 -0.20503582 -0.028889218 -0.018107465 0.11084925 -0.12027244 -0.2704407 -0.11920297
-0.004121274 0.13058873 0.03374695 -0.12446345 -0.06307707 -0.014760319 -0.0145543525 0.1563648
0.03489798 -0.20941867 -0.053475454 -0.047094073 5.8033293e-05 0.06971826 0.015104141 0.007623516
0.08284292 0.14701483 -0.009936638 0.54419583 0.13052219 -0.11604244 0.17763498 0.034749743
-0.02850173 0.040877614 -0.021484144 -0.027060116 0.13505527 0.4811013 0.52838427 0.49088413
0.0353662 -0.037903927 -0.03333357 -0.026765786 -0.021599244 -0.024510322 -0.03410099 -0.023146821
-0.022642072 -0.017409964 -0.04566784 -0.047178037 -0.11151944 -0.027943306 -0.024276396 -0.026821839
-0.041060153 -0.029676171 -0.029358251 -0.029392496 -0.037269495 -0.04992762 -0.115375236 -0.08882548
-0.117888175 -0.06642023 0.027028233 -0.00984813 -0.008639121 0.005624955 0.013289065 0.022569057
